model/checkpoint.pth (torch_old, 277275 bytes, 12 tensors)

conv1.weight f4 [16, 3, 3, 3]
0	0x3c3ba1bc	0.011452135
1	0x3dd49ef0	0.103818774
2	0x3d8658ae	0.06559883
3	0x3be7d197	0.0070745456
4	0xbe055df7	-0.13024126
5	0x3d50a64e	0.05093985
6	0x3e0e438c	0.13892955
7	0xbdd7f07f	-0.10543918
8	0x3e138823	0.14407401
9	0xbe2ca090	-0.16858125
10	0xbde60824	-0.112320215
11	0xbe57117c	-0.21002764
12	0x3d0f364e	0.0349639
13	0xbdfb8f81	-0.122832306
14	0x3dfdae54	0.12386766
15	0x3e33292b	0.17496173
16	0x3c7bd6d4	0.015371043
17	0xbc497039	-0.012294822
18	0x3e064e20	0.1311574
19	0xbe52bdb5	-0.2058018
20	0xbe098ad8	-0.13431871
21	0x3e29271e	0.16518828
22	0xbd67a842	-0.056556948
23	0x3de6cf6c	0.11270031
24	0x3c972962	0.01845235
25	0xbd741044	-0.059585825
26	0xbe0e5fee	-0.13903782
27	0x3e410404	0.18849188
28	0x3df51056	0.119660065
29	0x3cb34686	0.021884214
30	0x3d66a99f	0.056314107
31	0x3e5fd8e5	0.21860082
32	0xbd12f2ab	-0.035875957
33	0x3d6a176a	0.057151236
34	0x3e55f042	0.20892432
35	0xbde1c261	-0.11023403
36	0x3d2fb3bc	0.042896017
37	0xbe051116	-0.12994799
38	0xbe05ba0f	-0.13059257
39	0x3e0111af	0.12604402
40	0x3d1be1a0	0.03805697
41	0xbd827e15	-0.063717045
42	0x3d0480ea	0.032349505
43	0x3e2675e8	0.16255915
44	0xbe118952	-0.1421254
45	0xbe08884f	-0.13333248
46	0xbd8cea00	-0.068805695
47	0x3e0efbfd	0.13963313
48	0x3e0ccb0d	0.13749333
49	0x3e1f5b5f	0.15562199
50	0x3e4cac75	0.19987662
51	0x3e6dbeb1	0.23217274
52	0xbe10eca8	-0.14152777
53	0x3df45a44	0.11931279
54	0x3e08a663	0.13344721
55	0xbd056407	-0.032566097
56	0xbe0d7d2d	-0.13817282
57	0xbe141434	-0.14460832
58	0x3ca9cb03	0.020726686
59	0xbe4176b3	-0.18892936
60	0x3d97280b	0.073806845
61	0x3dae9a54	0.085255295
62	0xbcfebf2d	-0.03109702
63	0xbe22288d	-0.15835781
64	0xbdd305c4	-0.10303834
65	0x3d7de96b	0.061990183
66	0xbe4782e9	-0.19483532
67	0x3d0663f7	0.032810178
68	0xbe454d5a	-0.19267789
69	0xbe461e21	-0.19347431
70	0x3e22defb	0.15905373
71	0xbd9a7af8	-0.07542986
72	0xbe42b1d4	-0.19013149
73	0xbd41636e	-0.047213964
74	0x3e1bd51d	0.15218015
75	0xbb47d6e6	-0.003049308
76	0xbe110a25	-0.14164026
77	0x3e1b6023	0.15173392
78	0xbdae50c9	-0.08511502
79	0x3d0f2fb8	0.034957618
80	0x3dc66013	0.096862935
81	0x3daa6af5	0.08321182
82	0x3e224940	0.15848255
83	0x3dbbc406	0.09168248
84	0x3e63fa12	0.22263363
85	0xbda85e49	-0.082211085
86	0x3c8d3525	0.017237255
87	0x3e38ed1f	0.18059205
88	0x3e162fd5	0.14666684
89	0x3dc10449	0.094246455
90	0xbe1bfa9f	-0.15232323
91	0x3bb66a5e	0.005566879
92	0x3b2e6709	0.0026611707
93	0xbe2a150e	-0.16609594
94	0x3d89d8af	0.06730782
95	0x3e34426d	0.17603464
96	0xbd807692	-0.062726155
97	0xbe1f3e6f	-0.1555116
98	0xbc220306	-0.009888416
99	0xbd1dee70	-0.03855747
100	0xbdf565fc	-0.119823426
101	0x3d9099a0	0.07060552
102	0x3d76927c	0.060198292
103	0x3d710daa	0.05885092
104	0x3d4400fb	0.047852498
105	0xbda38dc5	-0.07986025
106	0x3e315f6d	0.17321558
107	0x3e2b5826	0.16732845
108	0x3de5380a	0.11192329
109	0x3dfd0351	0.12354148
110	0x3dc08dd1	0.09402049
111	0xbe028920	-0.12747622
112	0x3d3e8a6a	0.04651872
113	0xbdff681e	-0.12471031
114	0x3de937ce	0.11387597
115	0x3deafe84	0.11474326
116	0x3e0b4aaf	0.13602708
117	0x3e5eb5c4	0.21749026
118	0x3e25ffe8	0.16210902
119	0xbc33a8a6	-0.010965502
120	0x3e0eee08	0.13957989
121	0x3d5d08f1	0.053963605
122	0x3d166510	0.036717474
123	0x3e522815	0.20523103
124	0x3e00e756	0.12588248
125	0x39f6e529	0.00047091514
126	0xbd62ce31	-0.05537242
127	0x3e3897a6	0.180266
128	0xbe0cb250	-0.13739896
129	0x3dd6c047	0.10485893
130	0x3e2e015b	0.16992705
131	0x3e7222c8	0.2364608
132	0x3e7b4ab0	0.2454021
133	0xbb511257	-0.00319018
134	0xbd963171	-0.07333649
135	0xbe3645bd	-0.1780004
136	0xbe3da5ad	-0.18520232
137	0xbe31ea31	-0.17374493
138	0x3df45c5a	0.11931677
139	0x3d618eca	0.055067815
140	0x3c689a21	0.014196903
141	0xbcc0a7c1	-0.023517491
142	0xbcb991ac	-0.02265247
143	0xbdefe484	-0.11713508
144	0x3dc4aab7	0.09602874
145	0xbe2c4430	-0.16822886
146	0xbe278e2c	-0.16362828
147	0x3e4c8f3d	0.19976516
148	0x3e1627c2	0.14663604
149	0x3e3a135b	0.18171446
150	0xbe1a3ef8	-0.15063083
151	0x3d78772a	0.06066052
152	0xbe131c39	-0.14366235
153	0x3e07eeeb	0.13274734
154	0xbc8f3a57	-0.017483873
155	0x3d3123f3	0.043247174
156	0x3c2df94c	0.010618519
157	0x3d67d5ff	0.056600567
158	0xbd2005bd	-0.039067972
159	0x3e039207	0.12848674
160	0x3d2ea582	0.04263831
161	0x3e226c7c	0.15861696
162	0x3d8826d0	0.06648028
163	0x3dffad96	0.12484281
164	0x3e0ec5fc	0.13942713
165	0xbe2488c1	-0.16067792
166	0x3e373c5a	0.17894116
167	0x3e282af0	0.1642263
168	0x3e14f9bb	0.1454839
169	0x3def2040	0.11676073
170	0x3de8c5e3	0.11365869
171	0x3d55cdbc	0.052198157
172	0x3d1e2999	0.03861389
173	0x3e80be3b	0.25145134
174	0x3c5aa9af	0.01334612
175	0x3d844890	0.06459153
176	0xbd964f41	-0.07339335
177	0x3e157926	0.14596996
178	0x3d0f854b	0.035039227
179	0x3e4e5749	0.20150484
180	0xbd9beb6f	-0.07613265
181	0x3e3a2f30	0.18182063
182	0x3e5df4cc	0.21675414
183	0x3d90dcdf	0.07073378
184	0x3e503e55	0.20336278
185	0xbd1987b1	-0.03748292
186	0xbe0d7393	-0.1381362
187	0x3e74dad5	0.23911603
188	0x3e7f6903	0.24942403
189	0x3d6392fd	0.0555601
190	0x3e25df90	0.16198564
191	0xbdc019a7	-0.09379893
192	0x3e56fe29	0.20995392
193	0x3deefb28	0.11668998
194	0xbd3ef752	-0.04662258
195	0x3de27a3e	0.11058472
196	0xbdc0f9e3	-0.09422662
197	0xbd501cf8	-0.050808877
198	0x3d80b8e0	0.06285262
199	0xbd8b6fb6	-0.068084165
200	0x3da76d07	0.08175092
201	0xbdcdaeb9	-0.10043091
202	0x3dc614ac	0.096719116
203	0x3ddf9191	0.109164365
204	0xbd74e7e1	-0.05979145
205	0xbc99efb3	-0.018791055
206	0x3c343e24	0.011001144
207	0x3d71bff7	0.059020963
208	0x3da14875	0.07875148
209	0xbe288393	-0.16456442
210	0xbe09a7bf	-0.13442896
211	0xbe535f65	-0.20641859
212	0x3d88dc96	0.066826984
213	0xbdaee70c	-0.085401624
214	0xbda3666f	-0.07978522
215	0xbe05b323	-0.13056616
216	0x3d4301e4	0.047609225
217	0xbe14212c	-0.14465779
218	0x3e3d27a7	0.18472157
219	0x3e52bb3c	0.20579237
220	0xbdc413e9	-0.0957411
221	0x3dffa679	0.12482924
222	0x3e1dc339	0.15406503
223	0x3e6b33b9	0.2296895
224	0xbd903d37	-0.07042926
225	0xbc8c0c25	-0.017095635
226	0xbd361e76	-0.044462644
227	0x3e63699e	0.22208259
228	0x3d8918ec	0.066942066
229	0x3e2385ba	0.15968981
230	0x3e30360e	0.1720812
231	0x3e81010d	0.25196114
232	0x3dc1aa27	0.09456282
233	0xbd164e62	-0.036695845
234	0x3e66bdad	0.22533293
235	0x3e24fd60	0.1611228
236	0x3d77b6bb	0.060477
237	0x3dfd8073	0.12378015
238	0xbc2521f0	-0.010078892
239	0x3e09545e	0.1341109
240	0x3d102271	0.035189096
241	0x3e7fcc26	0.2498022
242	0xbbc74758	-0.006081503
243	0xbd88d6b7	-0.066815786
244	0x3e2f7c62	0.17137292
245	0xbd387a9a	-0.045038797
246	0x3d7f1238	0.062273234
247	0xbc68fd36	-0.014220526
248	0xbccbd377	-0.024881108
249	0xbe400a7d	-0.18754001
250	0xbdd13445	-0.10215048
251	0xbe5e23bb	-0.21693318
252	0x3e202673	0.15639667
253	0xbd6bb24a	-0.057543077
254	0x3d9dcd15	0.07705132
255	0xbbca9726	-0.006182569

conv1.bias f4 [16]
0	0x3dd769cc	0.10518226
1	0x3ba61c1e	0.00506927
2	0x3e167462	0.14692834
3	0xbd58c7af	-0.052924808
4	0xbdfd5730	-0.12370145
5	0xbdd42e20	-0.1036036
6	0xbcc554a8	-0.024088219
7	0x3df4e476	0.11957638
8	0xbd33f0b8	-0.04393074
9	0x3d1666f1	0.036719266
10	0x3c352913	0.011057156
11	0xbde62b19	-0.11238689
12	0x3db69dbd	0.08916805
13	0x3d8f7abe	0.07005833
14	0xbda001b9	-0.078128286
15	0xbcd6f2c5	-0.026238808

conv2.weight f4 [32, 16, 3, 3]
0	0x39a177c5	0.00030797548
1	0xbc2e60a2	-0.010643156
2	0xbd720ac3	-0.059092294
3	0x3d833150	0.0640589
4	0xbc3607b1	-0.011110232
5	0xbd7fdd41	-0.062466864
6	0x3d4be45e	0.049778335
7	0xbc03196c	-0.0080016665
8	0xbcc6337a	-0.024194468
9	0x3d1983a0	0.037479043
10	0x3cd79243	0.02631486
11	0xbd9629de	-0.07332204
12	0x3d022c23	0.031780373
13	0x3aa97aa7	0.001293023
14	0x3cca18cb	0.024670025
15	0x3d8665b0	0.06562364
16	0x3ce83a9a	0.028348256
17	0xbb9ff4db	-0.004881484
18	0xbcef0459	-0.029176878
19	0xbd676a97	-0.056498136
20	0x3d9c1f36	0.076231405
21	0x3d2fd501	0.042927746
22	0xbcdcacb6	-0.026937824
23	0xbd20289e	-0.039101236
24	0x3d4de0c9	0.0502632
25	0xbcb9afd7	-0.022666855
26	0xbd48ca70	-0.049021184
27	0x3d6765fd	0.056493748
28	0x3d007edb	0.03137098
29	0x3d3a3968	0.045464903
30	0xbdc41654	-0.09574571
31	0x3cc57e1e	0.024107989
32	0xbde3cfb9	-0.11123604
33	0xbddb5460	-0.10709453
34	0xbbf62463	-0.007511662
35	0xbdc28b61	-0.09499241
36	0xbcaf431d	-0.021394307
37	0xbda5ee8d	-0.081021406
38	0x3d0db99c	0.03460084
39	0x3d73e6e5	0.05954637
40	0xbba7c507	-0.005119923
41	0x3d039fbf	0.032134768
42	0xbd799068	-0.060928732
43	0x3c372472	0.011178123
44	0xbc960ed6	-0.018317621
45	0x3c8ea8a5	0.0174144
46	0x3d02ca93	0.03193147
47	0xbcf0429e	-0.02932864
48	0xbdb15846	-0.08659415
49	0xbda46c38	-0.080284536
50	0x3cab9518	0.020945117
51	0xbcdd0bb3	-0.026983118
52	0xbdd42389	-0.1035834
53	0x3c26a935	0.010172178
54	0xbcbbcf6e	-0.022926059
55	0xbd462f7c	-0.04838513
56	0xbd84cc34	-0.06484261
57	0xbccaeb21	-0.024770321
58	0x3cbd2a97	0.023091597
59	0xbd86933e	-0.06571053
60	0x3cfec6ee	0.031100716
61	0xbdb952b4	-0.090489775
62	0x3d84eec2	0.06490852
63	0xbd59b3b7	-0.053149905
64	0xbdca1c79	-0.09868712
65	0xbdb16f45	-0.08663801
66	0xbdc69b32	-0.0969757
67	0xbdd0c487	-0.101937346
68	0x3c15671e	0.009118823
69	0xbd32e802	-0.04367829
70	0xbd8fd2c2	-0.07022621
71	0x3c9cc837	0.019138439
72	0xbc0072ac	-0.00783984
73	0x3d6b1ee7	0.057402518
74	0x3d84bb2d	0.064810134
75	0xbd8b9c2a	-0.06816895
76	0xbd86dcff	-0.065851204
77	0xbd3a5261	-0.04548872
78	0x3bbba7d7	0.005726795
79	0xbdad0adf	-0.08449339
80	0x3d8f8c43	0.07009175
81	0x3c965162	0.018349353
82	0xbcc38aa4	-0.02386982
83	0x39c9f0b8	0.00038517057
84	0x3cf591f4	0.029976822
85	0x3d04ff13	0.03246982
86	0x3d636857	0.055519428
87	0x3d6d9d8c	0.058011577
88	0xbd1025cf	-0.035192307
89	0xbd05641f	-0.032566186
90	0xbd63c7e4	-0.055610552
91	0x3da032f3	0.07822218
92	0x3cf1c40b	0.029512426
93	0xbcbf769f	-0.023371993
94	0x3d3c88bf	0.04602885
95	0x3ddfd72c	0.10929713
96	0xbd63a404	-0.05557634
97	0xbbeb24aa	-0.0071760016
98	0xbd5a03e3	-0.053226363
99	0x3d144bcb	0.036205094
100	0xbc557b9d	-0.01302996
101	0x3d478fb0	0.048721015
102	0x3ccd3717	0.025050683
103	0xbd709a83	-0.058741104
104	0x3d7e798d	0.06212764
105	0x3c537767	0.012906886
106	0x3d5faa7d	0.05460595
107	0xbd98f5d9	-0.07468767
108	0x3c4f3cb3	0.012648749
109	0xbce33ff6	-0.02774046
110	0xbcdb87d4	-0.026798166
111	0x3c5b38df	0.013380258
112	0xbda4b89c	-0.08043024
113	0xbde018e4	-0.109422475
114	0x3c0c5739	0.008565717
115	0x3bdb6c74	0.006696278
116	0xbdc21279	-0.0947618
117	0x3cc97fcb	0.02459707
118	0x3ccf6ab6	0.025319438
119	0xbc3cb744	-0.011518303
120	0xbd90269c	-0.07038614
121	0x3d863399	0.0655281
122	0xbd221169	-0.039567385
123	0x3d3beb48	0.04587868
124	0xbcfec618	-0.031100318
125	0x3d5a9581	0.053365234
126	0x3cb83f90	0.022491246
127	0xbce37824	-0.027767248
128	0x3d8eb7a6	0.06968622
129	0x3b8897e6	0.0041684983
130	0x3d9adf29	0.07562096
131	0x3c96436a	0.018342692
132	0xbd1c1a04	-0.038110748
133	0xbd8b7352	-0.06809105
134	0xbaa7b4cc	-0.001279497
135	0x3af587b2	0.0018732457
136	0x3d3c2c49	0.04594067
137	0xbc23162e	-0.0099540185
138	0x3ca3576d	0.019939149
139	0xbd2beece	-0.04197579
140	0x3ca67ace	0.02032223
141	0xbde664d1	-0.11249698
142	0xbdfb6383	-0.1227484
143	0xbdd2b51e	-0.102884516
144	0xbcb641ec	-0.02224823
145	0x3d88bfbc	0.066771954
146	0x3d7205f6	0.059087716
147	0x3d9d19d3	0.07670941
148	0xbc5cc225	-0.013474022
149	0xbd30b889	-0.043144736
150	0x3d3bc082	0.045837887
151	0x3dc8d5f5	0.09806434
152	0xba96e2e4	-0.001151171
153	0xbcfbeae0	-0.030751646
154	0x3d02447d	0.031803597
155	0xbd120763	-0.035651576
156	0x3d34041f	0.043949243
157	0x3d29bae6	0.041438006
158	0xbcecf081	-0.028923275
159	0x3d8093a2	0.06278159
160	0x3dabf169	0.08395655
161	0x3d5e1674	0.05422063
162	0x3cc6c72e	0.024264898
163	0x3d4d8b4c	0.050181672
164	0xbc7fed04	-0.015620474
165	0x3aec1f30	0.0018014666
166	0xbd365530	-0.044514835
167	0xbd0364fe	-0.032078736
168	0xbbbaa0b0	-0.005695425
169	0xbca5bb9d	-0.020231063
170	0xbad2e113	-0.0016088806
171	0xbd0f3836	-0.034965716
172	0x3ccdca97	0.025121016
173	0x3cb11fbd	0.02162158
174	0xbd41b266	-0.047289275
175	0xbd80fe3c	-0.06298491
176	0x3d0752ba	0.03303788
177	0xbcd58206	-0.026062977
178	0x3c3df27d	0.011593458
179	0x3d6d8f42	0.05799795
180	0x3d19dd6e	0.037564687
181	0x3d7714e2	0.06032265
182	0xbdbdd8fb	-0.09269901
183	0xbcb244de	-0.021761354
184	0x3cef8589	0.02923848
185	0x3cbd463c	0.02310478
186	0xbd0d7882	-0.034538753
187	0xbc5217bc	-0.0128230415
188	0xbd42a431	-0.047519866
189	0xbe01016b	-0.12598197
190	0xbe019a2a	-0.12656465
191	0xbb198956	-0.0023427806
192	0xbe186f97	-0.14886318
193	0xbe1ab26d	-0.15107127
194	0xbe3fe973	-0.18741398
195	0xbe341e71	-0.17589737
196	0xbdd381bb	-0.103274785
197	0xbdf511b9	-0.11966271
198	0xbd1afc70	-0.0378384
199	0x3d561a5b	0.05227123
200	0x3cdabb18	0.026700541
201	0x3d3c772d	0.046012092
202	0x3d96c265	0.073612966
203	0xbd911f01	-0.07085992
204	0xbd29bad9	-0.041437957
205	0xbd2b7871	-0.04186291
206	0xbc844645	-0.016146788
207	0x3df3e618	0.11909121
208	0x3c5c4f12	0.013446586
209	0x3da2d389	0.079505034
210	0x3d034cb3	0.032055568
211	0x3c9be36a	0.019029338
212	0xbcbc8170	-0.02301094
213	0x3dd5f75e	0.10447572
214	0x3d325010	0.043533385
215	0xbc4ffc7b	-0.012694473
216	0xbcbc8514	-0.023012675
217	0xbd86b8fd	-0.065782525
218	0xbd86f991	-0.0659057
219	0x3d4bfff5	0.049804647
220	0xbc7210e6	-0.014774537
221	0x3c8eef8e	0.017448213
222	0x3d935c86	0.07195382
223	0x3d0f1c62	0.034939177
224	0x3d56c960	0.05243814
225	0xbdcc29e8	-0.099689305
226	0xbd1ffd77	-0.039060082
227	0xbb2f00de	-0.0026703398
228	0xbdef5fb4	-0.11688176
229	0xbd57e07b	-0.052704316
230	0xbd872934	-0.06599656
231	0x3d8592e3	0.06522157
232	0x3dc0c67a	0.094128564
233	0x3de0224f	0.10944044
234	0xbe20b0a3	-0.15692382
235	0xbe88d62a	-0.26725894
236	0xbe8d5b71	-0.27608827
237	0xbe76ad14	-0.24089462
238	0xbeb2015f	-0.3476667
239	0xbe9783d9	-0.2959278
240	0xbdba275d	-0.09089539
241	0xbddf9ec9	-0.10918958
242	0xbe8a4820	-0.27008152
243	0xbbd150d1	-0.006387808
244	0xbd8c0918	-0.06837672
245	0xbe0225a2	-0.12709668
246	0xb93d3bb8	-0.00018046692
247	0x3c3b528c	0.011433255
248	0xbdaaa40c	-0.08332071
249	0xbc0694f7	-0.008214227
250	0xbd93adc6	-0.07210879
251	0xbdd40843	-0.10353138
252	0x3ca37904	0.019955166
253	0x3db2f819	0.08738727
254	0xbd2a4d64	-0.04157771
255	0xbbf502d1	-0.0074771424

conv2.bias f4 [32]
0	0x3dae6726	0.08515768
1	0xbd91f6de	-0.07127164
2	0xbd4047e0	-0.046943545
3	0xbd9a193d	-0.07524345
4	0xbd828a51	-0.06374038
5	0x3c5bc44d	0.013413501
6	0xbcbd364a	-0.023097176
7	0x3e004b43	0.1252871
8	0x3c7f063a	0.015565449
9	0x3c8a98b2	0.016918514
10	0x3cc7c796	0.024387162
11	0xbd2fb717	-0.042899217
12	0xbb869a12	-0.004107722
13	0x3cc05d27	0.023481918
14	0xbda9f2f8	-0.08298296
15	0x3d113883	0.035454284
16	0xbcf782c2	-0.030213717
17	0x3d585109	0.052811656
18	0x3d0f715d	0.03502022
19	0x3d8c5fe4	0.06854227
20	0x3d70e992	0.0588165
21	0xbd44f13c	-0.04808162
22	0x3d9ab25f	0.07553553
23	0xbd1aaa61	-0.037760142
24	0xbd2ce7ba	-0.04221318
25	0xbcc12057	-0.023574991
26	0xbd48a83e	-0.048988573
27	0x3df71693	0.120648526
28	0xbd3b2336	-0.045687877
29	0x3d99a7a9	0.07502682
30	0xbc983cfd	-0.018583769
31	0x3cf309b1	0.029667707

conv3.weight f4 [64, 32, 3, 3]
0	0xbd550e09	-0.052015338
1	0xbc4b8394	-0.012421507
2	0xbd4fc000	-0.050720215
3	0xbb19efc4	-0.0023488859
4	0x3cab4119	0.020905064
5	0xbd49af06	-0.04923918
6	0xba6c3d21	-0.00090117945
7	0xba1d9957	-0.0006011924
8	0xbd72f449	-0.059315
9	0x3b6ce319	0.0036146103
10	0xbcdc9819	-0.026927995
11	0xbbd64d44	-0.0065399725
12	0x3d1a861c	0.037725553
13	0x3d13810b	0.036011737
14	0xbd01069f	-0.031500455
15	0x3bd219e2	0.006411777
16	0x3d47dd71	0.048795167
17	0x3c9934be	0.018701907
18	0x3d158b84	0.036510006
19	0x3c939646	0.018015992
20	0x3c8ff764	0.01757402
21	0xbb48339b	-0.0030548337
22	0xbc9bd02d	-0.019020164
23	0x3cb61d87	0.022230877
24	0xbca87900	-0.02056551
25	0x3d513fc5	0.051086206
26	0x3cc66d6d	0.0242221
27	0x3bc1a295	0.005909274
28	0xbbc2118f	-0.0059225033
29	0x3c4f82eb	0.012665491
30	0xbd809268	-0.06277925
31	0x3be73f85	0.0070571327
32	0xbda28ff7	-0.07937615
33	0x3d4e9a60	0.050440192
34	0xbd5c41a5	-0.05377354
35	0xbd957de9	-0.07299406
36	0x3b8fe5f1	0.004391425
37	0xbc62cbe1	-0.013842554
38	0xbb325a74	-0.0027214559
39	0xbdba9f4f	-0.09112417
40	0xbd4fbe14	-0.050718382
41	0xbca83dc8	-0.020537272
42	0xbd83a5de	-0.06428121
43	0xbbb94d31	-0.005654954
44	0xbd769270	-0.060198247
45	0xbc0ad41a	-0.0084734205
46	0x3ccffe52	0.025389824
47	0x3c829bd2	0.015943442
48	0xb8965296	-7.16794e-05
49	0x3d3a18fe	0.04543399
50	0xbd0bb45f	-0.034107562
51	0xbca6450c	-0.020296596
52	0x3d86a8d7	0.065751724
53	0x3cf95cb9	0.030439721
54	0x3cdab5f6	0.026698094
55	0xbd3ab57e	-0.04558324
56	0x3aa588cd	0.0012629271
57	0x3c91acf4	0.017782666
58	0xbd17944b	-0.037006658
59	0xbd60e835	-0.05490895
60	0x3d104cd5	0.035229523
61	0x3d5122bd	0.05105852
62	0xbb039829	-0.0020079708
63	0x3c0781f0	0.008270726
64	0xbc90cb42	-0.017675046
65	0x3d539bee	0.051662378
66	0xbd0dc935	-0.034615714
67	0xbd0a5c2d	-0.033779312
68	0x3c31dd68	0.01085601
69	0xbd6c7ad0	-0.05773431
70	0x3c39b925	0.011335646
71	0x3d1df0b7	0.03855964
72	0x3d731da9	0.059354458
73	0x3cef755d	0.029230768
74	0xbbc26c82	-0.0059333453
75	0x3d07e614	0.033178404
76	0xbcd09b4f	-0.025464682
77	0xbd43c2cc	-0.047793195
78	0x3cb9904b	0.022651812
79	0x3ca7b7dc	0.020473413
80	0x3d20df48	0.039275438
81	0x3bad842d	0.0052952976
82	0x3d4cdd01	0.050015453
83	0xbd058043	-0.032593023
84	0x3aca9d42	0.0015458243
85	0x3d2b4f83	0.041823875
86	0xbc8383ff	-0.016054152
87	0xbce8bb8c	-0.028409742
88	0x3d864a19	0.06557102
89	0xbcdc25c8	-0.026873484
90	0xbde7b11d	-0.113130786
91	0xbe0e42cc	-0.13892668
92	0xbded3650	-0.11582625
93	0xbe4b251e	-0.19838378
94	0xbe34a239	-0.17640008
95	0xbddc4726	-0.10755758
96	0xbdbc59da	-0.09196825
97	0xbe0d2ee7	-0.13787423
98	0xbd96eb7e	-0.07369135
99	0xbd3a0cd2	-0.045422383
100	0xbb9b7d66	-0.0047451733
101	0xbd00f449	-0.03148297
102	0x3d229c5d	0.0396999
103	0xbc60390d	-0.013685477
104	0xbcb0bf22	-0.021575514
105	0x3dd34ccb	0.103173815
106	0xbcc49064	-0.023994632
107	0xb9f183ef	-0.000460654
108	0xbccf5adc	-0.02531188
109	0x3b08edb5	0.0020893638
110	0x3cbd0e36	0.023078065
111	0x3d8dafad	0.06918273
112	0xbd0dd6a9	-0.034628544
113	0xbd17d32c	-0.037066624
114	0x3cf2810b	0.029602548
115	0xbd046121	-0.03231919
116	0x3cd80add	0.026372368
117	0xbb00c308	-0.0019647498
118	0xbc8d7df7	-0.017271979
119	0x3d2ceb91	0.04221684
120	0x3db1243b	0.086494885
121	0xbd07011d	-0.032960046
122	0xbd585455	-0.0528148
123	0x3d82985c	0.063767165
124	0xbd59f458	-0.05321154
125	0xbce8abd9	-0.028402256
126	0xbd8a56fb	-0.067548715
127	0xbc0cc17d	-0.008591053
128	0xbdb6b102	-0.0892048
129	0xbd6b2f3a	-0.057418086
130	0xbd810657	-0.06300037
131	0xbc52f556	-0.012875875
132	0xbc9fe5e7	-0.019518806
133	0xbda002ec	-0.07813057
134	0xbd1b75f5	-0.03795429
135	0x3e02ca5e	0.1277251
136	0x3de22ba8	0.11043483
137	0x3dda89a7	0.10670786
138	0x3de2304e	0.1104437
139	0x3e079f53	0.13244371
140	0x3d615575	0.05501314
141	0x3e04fbde	0.12986705
142	0x3d28630d	0.041110087
143	0x3dd0216f	0.10162627
144	0x3dca5ba3	0.098807596
145	0x3b4ae6f5	0.0030960415
146	0x3d0ebd99	0.034848783
147	0x3dd386b5	0.10328428
148	0xbb01f2bc	-0.001982852
149	0x3d01d8fb	0.03170107
150	0x3c850478	0.016237482
151	0x3baef4e2	0.005339251
152	0x3d13e72c	0.036109135
153	0xbc7fac8b	-0.015605102
154	0x3bbf3a82	0.005835832
155	0xbc8fc0d8	-0.01754801
156	0xbd59d9f9	-0.05318639
157	0xbd70780a	-0.05870823
158	0xbcce9179	-0.025215851
159	0x3bd9261b	0.006626857
160	0x3d062808	0.03275302
161	0x3d24669a	0.04013691
162	0x3c09e702	0.008416893
163	0xbd5ab636	-0.053396426
164	0xbd65f95c	-0.05614601
165	0xbd64b6c7	-0.055838373
166	0x3c1d17a7	0.009588159
167	0xbd456b41	-0.04819799
168	0xbdd906ec	-0.10597023
169	0xbd2446af	-0.04010647
170	0x3d6d5acb	0.057947915
171	0x381d18ab	3.745469e-05
172	0xbca4185b	-0.020031145
173	0xbce2c6eb	-0.027682742
174	0x3cfcf51a	0.030878592
175	0x3d3e2057	0.04641756
176	0xbd38bf07	-0.045104053
177	0xbda2847d	-0.079354264
178	0xbcb47c4d	-0.022031927
179	0xbcef48f5	-0.029209593
180	0x3dda3f70	0.10656631
181	0xbb8182f2	-0.0039523775
182	0xbde0a0ad	-0.109681465
183	0xbcce1381	-0.025155785
184	0x3d9a418f	0.075320356
185	0xbd60cab8	-0.054880828
186	0xbd9b42f3	-0.07581129
187	0x3bcf9bce	0.006335712
188	0xbb9bb066	-0.004751253
189	0x3c1c7f18	0.009551786
190	0xbd34984c	-0.044090554
191	0xbd458982	-0.04822684
192	0x3deb35c1	0.11484862
193	0x3db47103	0.08810618
194	0xbd94e493	-0.072701596
195	0x3ddc6287	0.1076098
196	0x3d7559e5	0.059900183
197	0xbc89e378	-0.016832098
198	0x3de18cc4	0.11013177
199	0xbb88c186	-0.0041734604
200	0xbdafecc2	-0.0859008
201	0xbcc96ebf	-0.02458894
202	0x3cb77a70	0.02239725
203	0xbd1a6907	-0.037697818
204	0xbdf6c7d0	-0.1204983
205	0x3d0866eb	0.033301275
206	0x3d849952	0.06474556
207	0x3d59f699	0.05321369
208	0x3ca2c728	0.019870356
209	0xbd079a19	-0.033105943
210	0x3dca49a0	0.09877324
211	0xbc58a973	-0.013223994
212	0xbda3e1c3	-0.08002045
213	0x3d873e0d	0.06603632
214	0x3d86013f	0.065432064
215	0xbc5559ab	-0.013021867
216	0x3cf2745f	0.029596506
217	0x3c182b53	0.009287673
218	0xbd236335	-0.039889533
219	0xbb8b4304	-0.0042499322
220	0xbde0ea85	-0.10982231
221	0xbd7dc074	-0.061951116
222	0xbca9ed6d	-0.020743096
223	0xbda97532	-0.08274306
224	0xbd4549b2	-0.048165984
225	0x3d8aeb06	0.067831084
226	0xbd574c94	-0.052563265
227	0x3cf6af31	0.030112835
228	0x3c7c2cc1	0.01539153
229	0x3c96b266	0.018395614
230	0xba02192d	-0.0004962858
231	0xbc5c2402	-0.013436319
232	0x3d0f8593	0.035039496
233	0xbd6613bb	-0.05617116
234	0x3cd6862e	0.026187029
235	0xbd24cdba	-0.04023526
236	0xbd154014	-0.036438063
237	0x3dbb38be	0.09141682
238	0x3caf5000	0.021400452
239	0xbcb7b61e	-0.022425707
240	0x3d1a5fad	0.0376889
241	0x3d6318d9	0.05544362
242	0xbd0d9340	-0.034564257
243	0xbd64043b	-0.055668097
244	0xbd23ebf3	-0.04001994
245	0x3d21e264	0.039522544
246	0x3cfacbe0	0.030614793
247	0x3c90aab4	0.017659523
248	0xbc07d0fe	-0.008289574
249	0xbd2c3db1	-0.04205102
250	0x3d2635d4	0.04057868
251	0xbc24dbb2	-0.010062145
252	0xbcd66c8f	-0.026174812
253	0xbbaeae04	-0.005330803
254	0xbce84fe0	-0.0283584
255	0x3d21c60a	0.039495505

conv3.bias f4 [64]
0	0x3d00dfff	0.03146362
1	0x3d89b118	0.06723231
2	0xbd2e607f	-0.042572495
3	0x3b8cc269	0.0042956364
4	0x3bc36b8e	0.0059637493
5	0x3dbd5c63	0.09246137
6	0x3cc4d3c5	0.02402676
7	0x3d0a0aa1	0.033701543
8	0x3c56284d	0.013071132
9	0xbcf47ea6	-0.029845547
10	0x3cb6a4b0	0.022295326
11	0x3d495ac3	0.049158823
12	0xbcbdbe99	-0.023162173
13	0xbd197b09	-0.03747085
14	0xbc86eff9	-0.01647185
15	0x3d0c688f	0.034279402
16	0xbb52a307	-0.003214063
17	0xbc1af804	-0.009458546
18	0xbd4cb880	-0.04998064
19	0xbd3b5e63	-0.04574431
20	0xbca1ba82	-0.019742254
21	0xbd4cfa8c	-0.050043628
22	0x3e2f91c9	0.17145456
23	0x3d37b668	0.04485169
24	0x3dba2b23	0.09090259
25	0x3df07980	0.11741924
26	0x3d38f610	0.04515654
27	0x3d9e9f68	0.07745248
28	0xbcde6bb9	-0.027150976
29	0xbcbd5bed	-0.023115123
30	0x3bbbc492	0.00573022
31	0x3d165d10	0.036709845
32	0xbd502b09	-0.05082229
33	0xbca675fc	-0.020319931
34	0xbc1599aa	-0.009130875
35	0x3d2518a3	0.0403067
36	0xbc73bd96	-0.014876744
37	0x3d81ec5b	0.06343909
38	0x3d361c0b	0.044460338
39	0xbda283ca	-0.07935293
40	0xbcd6c548	-0.026217118
41	0x3e304b5c	0.17216247
42	0x3d700a53	0.058603596
43	0xbc9187c0	-0.017764926
44	0xba907bdd	-0.0011023242
45	0x3da780e8	0.08178884
46	0xbbea1dc8	-0.0071446635
47	0xbd12fffa	-0.03588865
48	0xbc61d358	-0.013783298
49	0xbd2e2d37	-0.04252359
50	0xba655bb7	-0.00087493233
51	0x3cec0b05	0.028813848
52	0x3d991ecc	0.07476577
53	0x3d4db5f1	0.05022234
54	0xb95db529	-0.0002114369
55	0x3d3b7dba	0.0457742
56	0x3e062530	0.13100123
57	0x3de5fdb0	0.11230028
58	0x3e48f922	0.19626287
59	0xbcdd4acc	-0.027013205
60	0x3c9121ec	0.01771637
61	0xbd5210fe	-0.051285736
62	0xbd69e6d0	-0.057104886
63	0xbd974643	-0.07386448

conv4.weight f4 [64, 64, 3, 3]
0	0xbd26f7eb	-0.040763777
1	0xbbff83b3	-0.007797682
2	0xbb486522	-0.0030577858
3	0xbd0a5fe5	-0.03378286
4	0xbdcd81cc	-0.100345224
5	0xbcd78f88	-0.026313558
6	0xbc2fbbf2	-0.010725962
7	0xbd28aee1	-0.041182403
8	0xbcae33ef	-0.021264998
9	0xbda6afdf	-0.081390135
10	0xbdc4909b	-0.09597894
11	0xbd424d7f	-0.047437187
12	0xbd0bf4c1	-0.034168962
13	0xbd96b6e5	-0.07359103
14	0xbcde5443	-0.027139788
15	0x3cb35979	0.02189325
16	0x3d544447	0.051822927
17	0x3d7dccb5	0.061962802
18	0x3e24e86d	0.16104288
19	0x3e1d3871	0.15353562
20	0x3df96c2c	0.12178835
21	0x3dd574e8	0.10422689
22	0x3da2ac42	0.07943012
23	0x3dbcd3a6	0.09220056
24	0x3be0de8f	0.0068624686
25	0xbcda9a01	-0.026684763
26	0xbcc0e7fa	-0.023548115
27	0xbc7e6825	-0.01552776
28	0x3d1e28ed	0.03861325
29	0xbbbe2ae5	-0.0058034533
30	0x3d701986	0.05861809
31	0x3d62d7f4	0.05538173
32	0x3d81ce0e	0.0633813
33	0x3d762e24	0.060102597
34	0x3c90cc94	0.017675675
35	0x3d17c4ae	0.037052803
36	0x3cc3e2f1	0.023911925
37	0x3c5b950a	0.013402233
38	0x3d3533d0	0.044238865
39	0x3a3eb700	0.0007275194
40	0xbde5588f	-0.11198532
41	0xbdab6a53	-0.08369889
42	0xbc281958	-0.010259949
43	0xbdf90acc	-0.121602625
44	0xbdedecef	-0.11617457
45	0x3bc54803	0.0060205474
46	0x3c505352	0.012715178
47	0x3d0d9f5a	0.034575798
48	0x3d0ee65b	0.034887653
49	0xbc36ea42	-0.01116425
50	0x3b98aba1	0.0046591316
51	0x3c16cdfc	0.009204384
52	0xbc7d434d	-0.01545794
53	0xb975f8a1	-0.00023457642
54	0x3d8a3924	0.0674918
55	0x3d3299fc	0.043603882
56	0x3d7942c5	0.060854692
57	0xbd195ba5	-0.037440915
58	0xbd23721d	-0.03990375
59	0xbd1336dd	-0.035940994
60	0x3b8d4142	0.004310758
61	0xbd9dc6b8	-0.07703918
62	0xbcde18eb	-0.027111491
63	0x3cf8dfb0	0.0303801
64	0x3d2692d9	0.04066739
65	0x3babf576	0.005247767
66	0xbd3a7291	-0.045519415
67	0xbd86076a	-0.06544383
68	0xbd8ef2d7	-0.06979912
69	0xbcae51a6	-0.021279167
70	0x3ca8675f	0.020557104
71	0x3bf4cd16	0.007470737
72	0x3bf769d6	0.0075504584
73	0xbb9f1ca1	-0.0048557078
74	0x3c94009c	0.018066697
75	0xbc93639f	-0.017991839
76	0x3d1577a1	0.03649104
77	0xbcb3caa9	-0.021947222
78	0xbb18a53f	-0.0023291854
79	0xbd3976a7	-0.04527917
80	0xbc75f786	-0.0150126275
81	0xbd12b9dd	-0.035821784
82	0x3d4a1e45	0.049345274
83	0x3da1ae94	0.07894626
84	0x3d0c9f56	0.034331642
85	0xbd212b6e	-0.03934806
86	0x3c86198e	0.016369607
87	0x3dadade9	0.08480436
88	0xbc613210	-0.013744846
89	0x3d408bf8	0.047008485
90	0x3d1ee6d7	0.038794365
91	0x3d016bfa	0.031597115
92	0x3d148836	0.036262713
93	0x3d10b3e4	0.035327807
94	0x3c3ff41d	0.011715916
95	0x3cb04cc1	0.021520974
96	0xbae17365	-0.0017200528
97	0x3c32f7a6	0.010923302
98	0xbbf477dd	-0.007460578
99	0xbcf700b8	-0.03015171
100	0xbd2bae3b	-0.041914206
101	0xbd00fb72	-0.031489797
102	0xbbe8dd1b	-0.007106436
103	0xbc355f90	-0.011070147
104	0xbd810d10	-0.063013196
105	0x3d074a6f	0.03302997
106	0xbd0ee442	-0.034885652
107	0x3cdfbefe	0.027312752
108	0x3ba2a2c2	0.00496325
109	0x3ce01a75	0.027356366
110	0x3da653bc	0.0812144
111	0xbe1bd03f	-0.15216158
112	0xbddebbb8	-0.10875648
113	0xbd9bd735	-0.07609407
114	0xbdd3ad22	-0.10335757
115	0xbdcffa9e	-0.10155223
116	0xbd80579c	-0.0626671
117	0x3db2edd4	0.08736768
118	0x3d950f5d	0.07278321
119	0x3da8e697	0.082471065
120	0x3d26afcc	0.040694997
121	0xbd7c1def	-0.061551984
122	0x3bcaa7d7	0.006184559
123	0xbd1a708d	-0.037704993
124	0xbd974eee	-0.073881015
125	0xbd0613f3	-0.03273387
126	0xbb9e5adc	-0.0048326086
127	0x3ba4dd9b	0.0050313002
128	0xbc853e57	-0.016265078
129	0x3d750a26	0.05982413
130	0x3d3a0f77	0.045424905
131	0x3c8377d2	0.016048346
132	0xbcbf02e1	-0.023316802
133	0x3d0ba2ed	0.034090925
134	0xbc82ae09	-0.015952127
135	0x3d4d4c8e	0.050121836
136	0x3c335bb9	0.010947161
137	0x3d91be83	0.07116415
138	0xbdeb0f83	-0.11477568
139	0xbdf3f998	-0.119128406
140	0xbda620e7	-0.081117444
141	0xbdc4431e	-0.09583114
142	0xbd9777ae	-0.07395874
143	0xbd4ff569	-0.05077115
144	0xbdaf0ce2	-0.08547379
145	0xbc3976fe	-0.011319874
146	0x3ca5f083	0.020256286
147	0xbdf54e61	-0.1197784
148	0xbdc80748	-0.09767014
149	0xbdbbf10c	-0.091768354
150	0xbd52da51	-0.051477734
151	0xbe00385c	-0.125215
152	0xbd39b885	-0.045341987
153	0x3d292949	0.04129914
154	0x3c98745d	0.018610174
155	0x3b5ff19c	0.003417111
156	0xbde52fa4	-0.11190727
157	0xbdbf6cef	-0.09346949
158	0xbdef4a43	-0.11684086
159	0xbdc02459	-0.09381933
160	0xbdd97612	-0.10618223
161	0xbdcd9972	-0.10039033
162	0x3c461bde	0.012091605
163	0xbd0d0f88	-0.03443864
164	0x3c87ed0d	0.016592527
165	0x3c533cb9	0.012892895
166	0xbc21f2cf	-0.00988455
167	0xbb2a8c6a	-0.0026023635
168	0x3c312eea	0.010814408
169	0xbb720d13	-0.0036934062
170	0xbb5881c6	-0.0033036335
171	0x3cbe8036	0.023254495
172	0xbcf3173c	-0.029674165
173	0x3c977a14	0.018490829
174	0xbbf5a0f2	-0.007495993
175	0xbc8dbcb9	-0.017301904
176	0x3cc3c9ab	0.023899874
177	0x3d17d78e	0.037070803
178	0xbd55b473	-0.052174043
179	0x3b19695f	0.0023408753
180	0x3c804759	0.015659021
181	0x3cb9c665	0.02267761
182	0xbd08efba	-0.033431746
183	0x3d89289b	0.06697198
184	0x3d60e50e	0.054905944
185	0x3d63b32d	0.055590797
186	0x3d1cf46f	0.038319048
187	0x3d7ea7fd	0.062171925
188	0x3d532bda	0.051555492
189	0x3d34039a	0.043948747
190	0xbbddf984	-0.0067741293
191	0xbbf6a72c	-0.0075272527
192	0x3d388af7	0.045054402
193	0x3ca52674	0.020159937
194	0xbb8d17a3	-0.004305796
195	0x3c3d1b5e	0.011542169
196	0xbbb00258	-0.005371373
197	0xbbfa2b3d	-0.007634549
198	0x3cbf466d	0.023349011
199	0x3c6e2673	0.014535534
200	0x3cde1f27	0.027114464
201	0x3b43269e	0.0029777656
202	0xbc3f9699	-0.01169362
203	0x3b5e3327	0.0033905
204	0xbd2c8a02	-0.042123802
205	0x3cb99530	0.022654146
206	0x3bce8e56	0.006303589
207	0x3c93efd6	0.018058699
208	0x3b955563	0.004557298
209	0x3cc3ec27	0.023916317
210	0x3dea9999	0.11455078
211	0x3de3fc84	0.11132148
212	0x3d875ac8	0.06609112
213	0x3c0c1fb5	0.008552481
214	0x3c5d7966	0.013517713
215	0x39f1e348	0.0004613644
216	0x3cb7f4ec	0.022455655
217	0x3cf2540e	0.029581096
218	0x3d1c01b2	0.038087554
219	0x3d6563af	0.05600327
220	0xbc41d81c	-0.01183131
221	0xbb97878b	-0.0046243123
222	0x3d33fcf3	0.043942403
223	0xbcf9a6aa	-0.03047498
224	0xbd0d9d9e	-0.034574144
225	0x3c4ac7f2	0.012376772
226	0xbceed924	-0.029156275
227	0xbcd07b71	-0.025449486
228	0x3ca1a716	0.019732993
229	0x39d764ad	0.00041083005
230	0x3b4bf95e	0.0031123976
231	0x3cfc834d	0.030824328
232	0xbcc5c243	-0.024140483
233	0x3c0bf576	0.008542409
234	0xbb2200f6	-0.002471981
235	0x3d0bac99	0.03410015
236	0xbd14ac70	-0.03629726
237	0xbcbc755e	-0.023005184
238	0xbd1ba9f7	-0.038003888
239	0x3cb3d348	0.021951333
240	0x3c01ef0e	0.00793053
241	0x3c2db94d	0.010603261
242	0x3d6cc2f4	0.05780311
243	0xbd0a53d4	-0.03377135
244	0xbcd77b29	-0.026303845
245	0x3d21238e	0.03934055
246	0x3d10785a	0.035271026
247	0xbc9e49d8	-0.01932232
248	0x3b27f773	0.002562967
249	0x3d5155ed	0.051107336
250	0x3c0ad339	0.008473211
251	0x3d2d6790	0.042335093
252	0x3d6cc7e6	0.057807826
253	0x3d3bb0f1	0.04582304
254	0x3cb374a1	0.021906199
255	0xbd3e23e3	-0.046420943

conv4.bias f4 [64]
0	0x3cf79c90	0.030226022
1	0x3df1d43b	0.11808058
2	0xbd42778b	-0.047477286
3	0x3dac8110	0.08423054
4	0x3c6e5a19	0.014547848
5	0xbd7dc150	-0.061951935
6	0xbd546b3f	-0.05186009
7	0xbd3affff	-0.045654293
8	0x3c60c168	0.013717987
9	0x3c97bf14	0.01852373
10	0x3b874cb9	0.004129019
11	0x3d85e59b	0.065379344
12	0x3dfd2f7f	0.12362575
13	0xbcf70e03	-0.030158048
14	0xbc402469	-0.011727431
15	0xbbb51890	-0.0055266097
16	0x3d688da7	0.056775715
17	0xbcccd027	-0.025001599
18	0x3d452fbf	0.048141237
19	0xbd83dccd	-0.06438599
20	0x3dab7494	0.08371845
21	0x3db7bcf8	0.0897159
22	0x3d769714	0.060202673
23	0xbd968838	-0.073502004
24	0x3d3cacbc	0.04606317
25	0x3bab0cdd	0.0052200393
26	0x3df654a1	0.120278604
27	0xbd2ba184	-0.04190208
28	0x3db2c1e0	0.08728385
29	0x3c39deae	0.011344595
30	0x3de25d15	0.1105291
31	0xbc080367	-0.008301592
32	0x3cf90082	0.03039575
33	0xbbbf5d2d	-0.005839965
34	0x3dbb986f	0.09159934
35	0x3d8de6f9	0.0692882
36	0xbd86f289	-0.06589229
37	0xbd333f2c	-0.043761417
38	0x3d5fcb63	0.054637324
39	0x3d96e851	0.073685296
40	0x3da43096	0.080170795
41	0x3d532326	0.051547192
42	0x3c5844f0	0.01320003
43	0xbb38ac00	-0.0028178692
44	0xbc17ecf0	-0.009272799
45	0xbd329363	-0.04359759
46	0xbd065727	-0.03279796
47	0xbd17945e	-0.03700673
48	0x3bb01f7e	0.005374848
49	0x3d4088df	0.04700553
50	0x3d9d8ea0	0.07693219
51	0x3b915499	0.0044351337
52	0x3daefc12	0.08544172
53	0xbcd62330	-0.026139826
54	0x3cbec1c8	0.023285761
55	0x3dc74603	0.097301506
56	0xbd1ff70e	-0.03905397
57	0x3d7edce5	0.06222238
58	0x3db99bca	0.090629175
59	0x3db1d49f	0.086831324
60	0x3da5e881	0.08100987
61	0xbc3d9ecf	-0.011573507
62	0xbccfa209	-0.02534582
63	0x3c20c887	0.009813434

l1.weight f4 [64, 64]
0	0xbda2d117	-0.07950037
1	0xbe0e7b27	-0.13914166
2	0xbdce6312	-0.1007749
3	0x3d900c1d	0.070335604
4	0xbd417edd	-0.047240127
5	0xbd1be513	-0.03806026
6	0xbd8f61e1	-0.07001091
7	0xbdbde975	-0.09273044
8	0xbbf04f6b	-0.007333686
9	0xbcab2855	-0.020893255
10	0xbd5c54e3	-0.05379189
11	0x3da4968c	0.08036527
12	0x3c6bc681	0.014390589
13	0x3d7c90f0	0.06166166
14	0xbcaee622	-0.02134997
15	0xbe62fd90	-0.22167039
16	0xbe37d541	-0.17952444
17	0x3da9b662	0.0828674
18	0x3e22a65f	0.15883778
19	0xbd6b49d5	-0.05744346
20	0xbe165ac2	-0.14683059
21	0xbd1cd3c5	-0.038287897
22	0x3df3aa8d	0.11897764
23	0x3dae83f8	0.08521265
24	0x3d083a3b	0.033258658
25	0xbe276e6d	-0.16350718
26	0x3db1686b	0.08662494
27	0x3da7ddcd	0.08196602
28	0xbe2f2ba7	-0.17106496
29	0x3d0338c4	0.032036558
30	0xbe3d6943	-0.18497185
31	0x3cf60f39	0.030036556
32	0x3d96080e	0.07325755
33	0x3dc1e3a4	0.09467247
34	0xbab50895	-0.0013811762
35	0x3c85a35e	0.016313251
36	0x3dfef27a	0.124485925
37	0xbd58651c	-0.0528308
38	0x3d958263	0.0730026
39	0xbdad5fa7	-0.0846551
40	0x3db412b9	0.087926336
41	0xbe62a422	-0.22132924
42	0x3cff2374	0.031144835
43	0xbcf2e871	-0.029651852
44	0xbc9c24a3	-0.019060438
45	0xbda3c7dc	-0.079971045
46	0x3d76fc88	0.060299426
47	0x3b077156	0.0020666919
48	0xbc2608ac	-0.0101339035
49	0x3c316e10	0.010829464
50	0x3b5ded42	0.003386334
51	0xbe772cbc	-0.24138159
52	0xbe951218	-0.29115367
53	0x3d73624d	0.05941992
54	0xbd712073	-0.058868837
55	0x3e0322e7	0.12806283
56	0xbdd5bd47	-0.104364924
57	0x3af767be	0.0018875522
58	0x3bc86da8	0.0061165877
59	0xbd477f0e	-0.048705153
60	0x3e23ed00	0.16008377
61	0xbe56db48	-0.20982087
62	0x3deebcb8	0.11657089
63	0xbe0310de	-0.12799403
64	0x3d0141d3	0.031556915
65	0x3dafd388	0.08585268
66	0x3dfeaf08	0.12435728
67	0xbd1addb0	-0.037809074
68	0xbce5fa04	-0.028073318
69	0x3d7d76bc	0.061880812
70	0xbe3bb5d1	-0.18331076
71	0x3dee33fd	0.1163101
72	0x3dac0ee3	0.08401277
73	0xbde9bac5	-0.114125766
74	0xbdf28328	-0.11841422
75	0x3e050c06	0.12992868
76	0x3ddd1222	0.10794474
77	0x3d00ee78	0.03147742
78	0x3dba93cb	0.091102205
79	0x3d736171	0.0594191
80	0xbde6828b	-0.11255368
81	0x3cbc82bc	0.023011558
82	0xbd57f158	-0.052720398
83	0xbc2654be	-0.01015204
84	0x3e373535	0.1789139
85	0xbe776c89	-0.24162497
86	0xbe40c196	-0.18823847
87	0x3cd50902	0.026005272
88	0x3dd27ed1	0.102780946
89	0xbde08460	-0.109627485
90	0x3de21c7d	0.1104059
91	0x3de79cb0	0.11309183
92	0xbe015393	-0.12629537
93	0xbe56c7e7	-0.20974694
94	0x3e3eed76	0.18645272
95	0xbeaba3f5	-0.33523527
96	0xbe4b8d2f	-0.19878076
97	0xbe35c7bd	-0.17751975
98	0xbd693cd4	-0.056942776
99	0xbd44eb22	-0.048075803
100	0x3d65c684	0.056097522
101	0x3dd1132b	0.10208734
102	0x3c758f77	0.014987818
103	0x3df34217	0.1187784
104	0xbe16311c	-0.14667171
105	0x3b2bac90	0.0026195385
106	0xbe65b14c	-0.22430915
107	0xbcf1940b	-0.029489538
108	0x3d5bc8b1	0.05365819
109	0x3d19ca99	0.037546728
110	0x3d134523	0.035954606
111	0x3d9f5cd3	0.07781377
112	0x3c1f13bb	0.009709294
113	0xbc67db64	-0.014151428
114	0xbe07a0fb	-0.13245003
115	0xbcefdd10	-0.029280216
116	0x3dffa58e	0.12482749
117	0xbdcad457	-0.09903782
118	0xbe8c6117	-0.27417824
119	0xbe07e82b	-0.13272159
120	0x3c2f9dc9	0.010718771
121	0x3cfb5b4e	0.030683186
122	0xbd09ee04	-0.033674255
123	0xbe1430e9	-0.14471783
124	0xbe28c704	-0.16482168
125	0x3c73efa2	0.014888676
126	0xbda94a98	-0.08266181
127	0x3df60f77	0.120146684
128	0xbd41413a	-0.047181346
129	0xbe0ea353	-0.13929491
130	0xbd8d7175	-0.06906406
131	0xbd3c9faa	-0.046050705
132	0x3dc67970	0.09691131
133	0xbd85259a	-0.065013126
134	0xbd4a426b	-0.049379747
135	0xbdf7a483	-0.12091925
136	0xbd34ea33	-0.044168662
137	0xbeae7dd3	-0.3408037
138	0xbd3e32e2	-0.046435244
139	0xbb7b700d	-0.0038366348
140	0xbd598f78	-0.053115338
141	0x3da654ca	0.08121641
142	0x3b920da2	0.0044571916
143	0xbe0eab5d	-0.13932557
144	0xbce8f6c6	-0.028437983
145	0xbd33e7f9	-0.0439224
146	0xbd5cec39	-0.053936217
147	0xbdb846cc	-0.089978784
148	0xbd683eea	-0.056700625
149	0x3e1c0e06	0.15239725
150	0xbc2c97a7	-0.010534204
151	0xbe00fd70	-0.12596679
152	0x3e4a62bb	0.19764225
153	0xbdc5f198	-0.09665221
154	0x3e16c432	0.1472328
155	0x3ce6cb50	0.028173119
156	0xbd2e197e	-0.04250478
157	0xbdc24881	-0.09486485
158	0x3d00882c	0.031379864
159	0xbdb4b70d	-0.08823977
160	0x3dc24bda	0.09487124
161	0x3be75842	0.0070600817
162	0x3e282af2	0.16422632
163	0x3e225e1c	0.15856212
164	0xbcf41441	-0.029794814
165	0xbca9da30	-0.020733923
166	0x3d121b41	0.035670523
167	0xbd792e97	-0.060835447
168	0x3c642eff	0.01392722
169	0xbdcd5e2e	-0.10027729
170	0x3de68f2f	0.11257779
171	0x3e1e145a	0.15437451
172	0xbd38a91f	-0.04508316
173	0x3e11c8f0	0.14236808
174	0xbc631e74	-0.013862241
175	0xbd8995f0	-0.067180514
176	0x3d4570b0	0.04820317
177	0x3d8e3472	0.06943597
178	0xbd4277c7	-0.04747751
179	0xbe4912a5	-0.19636019
180	0xbdb04c9a	-0.086083606
181	0x3dfc6670	0.12324226
182	0xbc1c0ca1	-0.009524495
183	0xbca9edd2	-0.020743284
184	0xbddf5783	-0.109053634
185	0xbd8006d8	-0.06251305
186	0x3e08c3b8	0.13355911
187	0x3dc11fe1	0.094299085
188	0x3df4fd2f	0.119623534
189	0xbe510e1e	-0.20415542
190	0x3db1967a	0.08671279
191	0x3d01b5ec	0.031667635
192	0x3d38f12e	0.045151882
193	0x3defa9a3	0.117022775
194	0x3da595c0	0.08085203
195	0x3d484345	0.04889228
196	0xbdb314cd	-0.08744202
197	0xbdb62ab8	-0.08894867
198	0xbde85d0f	-0.113458745
199	0xbda89bde	-0.08232854
200	0x3db6786e	0.08909689
201	0x3d324c11	0.043529574
202	0x3d914bc3	0.070945285
203	0xbc95e8c3	-0.018299466
204	0xbd1cb6e0	-0.03826034
205	0x3dc883ef	0.09790789
206	0xbdc798d5	-0.09745947
207	0x3aacbf8c	0.0013179644
208	0x3cf42cfd	0.029806608
209	0xbdb10e23	-0.086452745
210	0xbd736916	-0.05942639
211	0x3d8788d3	0.06617894
212	0xbdf14e5b	-0.11782523
213	0xbd97337b	-0.07382866
214	0x3e1ac519	0.1511425
215	0xbcbcad2d	-0.023031795
216	0xbdab59ab	-0.08366712
217	0x3e02424d	0.12720604
218	0x3e02fe77	0.12792383
219	0xbd80b073	-0.06283655
220	0x3c54b467	0.012982464
221	0x3c9a98bf	0.018871663
222	0xbe12bde8	-0.14330256
223	0xbd22f84d	-0.03978758
224	0x3e00010b	0.12500398
225	0x3d870960	0.06593585
226	0x3d435e6f	0.04769748
227	0x3d016c0f	0.031597193
228	0xbe322e71	-0.17400528
229	0x3dad7e6f	0.08471381
230	0x3bb86c4f	0.0056281458
231	0x3c0c94e3	0.008580419
232	0x3e151432	0.14558485
233	0x3d35703c	0.04429649
234	0xbd44f920	-0.048089147
235	0x3d0dd2d5	0.034624893
236	0x3e01a9fa	0.12662497
237	0x3d6a7180	0.05723715
238	0x3d9c71dc	0.076389045
239	0x3dc82368	0.09772378
240	0x3daeae5a	0.08529349
241	0xbcded6c3	-0.027202016
242	0x3db591d3	0.088657044
243	0x3beb5ad8	0.0071824603
244	0xbdbfd41c	-0.093666285
245	0xbdf554e0	-0.11979079
246	0xbd8bcea2	-0.068265215
247	0x3e00ee62	0.12590936
248	0xbd23961a	-0.03993807
249	0x3c85cc3a	0.016332734
250	0x3dce8d58	0.10085553
251	0x3e0a3b4f	0.13499187
252	0x378ff1b1	1.7159475e-05
253	0x3df2fbc1	0.118644245
254	0x3d37fdbb	0.04491971
255	0x3c0ae150	0.00847657

l1.bias f4 [64]
0	0x3d2b34a3	0.041798245
1	0x3e28478f	0.16433547
2	0x3e13e334	0.1444214
3	0x3dbe10bb	0.09280535
4	0x3d83ebcf	0.06441461
5	0xbde6cf57	-0.11270016
6	0x3dca1232	0.09866752
7	0xbddde18a	-0.10834034
8	0x3cd0c052	0.02548233
9	0x3ddff81b	0.10935994
10	0x3e02bf55	0.127683
11	0xbd550f27	-0.052016404
12	0x3cebf3f4	0.02880285
13	0xbb57b073	-0.0032911568
14	0x3dac1cb1	0.0840391
15	0xbc3aee65	-0.011409377
16	0x3e18d67a	0.14925566
17	0x3d6840bd	0.056702364
18	0xbd30faf3	-0.043208074
19	0xbdeeaeab	-0.11654409
20	0x3dbd2617	0.09235781
21	0x3ce0e12b	0.027451118
22	0x3dc08ca1	0.09401823
23	0xbd956281	-0.07294179
24	0xbdb69557	-0.08915203
25	0xbc9cddd5	-0.019148747
26	0xbd9fc37a	-0.07800956
27	0xbe1ca6f6	-0.15298066
28	0xbdb7559d	-0.08951876
29	0x3df345ef	0.11878573
30	0x3e21f1b2	0.15814856
31	0x3d5e3da4	0.054258004
32	0xbddefc44	-0.108879596
33	0xbe149a71	-0.1451204
34	0x3da0493c	0.07826468
35	0x3e0833c9	0.13301004
36	0xbdcdc905	-0.10048107
37	0x3e05af5b	0.13055174
38	0x3e5c97cd	0.21542282
39	0x3d7d1948	0.06179169
40	0xbdbbe20d	-0.09173975
41	0x3d6f79b9	0.058465693
42	0x3c9c1226	0.019051623
43	0x3c4a647e	0.012353061
44	0xbde06691	-0.10957063
45	0xbd7dce54	-0.061964348
46	0x3c6454b9	0.013936215
47	0xbd97a029	-0.07403595
48	0xbd9001d2	-0.07031597
49	0x3e76439d	0.2404923
50	0x3e284084	0.16430861
51	0x3e301f95	0.17199548
52	0xbd83cd94	-0.06435695
53	0x3e1e38ca	0.15451351
54	0x3de91f5b	0.11382934
55	0xbd684543	-0.056706678
56	0xbe1f91de	-0.15582988
57	0x3e3f977a	0.18710127
58	0xbe110455	-0.14161809
59	0xbe24b241	-0.16083623
60	0x3e784bc2	0.2424765
61	0x3e065b9e	0.13120887
62	0x3e563aac	0.20920819
63	0xbc167dce	-0.009185268

l2.weight f4 [64, 64]
0	0xbd6f7bf1	-0.05846781
1	0xbdc556f5	-0.09635726
2	0xbdcaf949	-0.099108286
3	0x3d531f9c	0.051543817
4	0x3c95d53f	0.01829016
5	0xbcd6967f	-0.026194809
6	0x3dcb386a	0.099228695
7	0x3d9cb16f	0.0765103
8	0x3cc0bd60	0.023527801
9	0xbdea058d	-0.1142684
10	0x3d415258	0.04719767
11	0x3d072e28	0.033003002
12	0xbce8c73a	-0.028415311
13	0xbd8b78fe	-0.06810187
14	0xbd4a4a2e	-0.04938715
15	0x3bd2fd76	0.0064389063
16	0x3ddf026f	0.10889136
17	0x3d1bac3d	0.038006056
18	0x3ded953d	0.116007306
19	0x3d03a5f9	0.032140706
20	0xbe72c3a7	-0.23707448
21	0xbe025350	-0.12727094
22	0x3e1ae363	0.15125804
23	0x3db6f7f9	0.08934016
24	0x3ddc6380	0.107611656
25	0xbd85a7f4	-0.06526175
26	0xbe08fa27	-0.13376676
27	0xbd1a1151	-0.03761417
28	0xbddbc62e	-0.10731159
29	0x3cc3286d	0.023822987
30	0xbd7803f6	-0.060550652
31	0xbde13f8f	-0.10998451
32	0x3dc95d61	0.09832264
33	0xbe2312f2	-0.15925196
34	0x3dd08301	0.10181237
35	0x3c64c28f	0.013962402
36	0xbe34d236	-0.17658314
37	0xbcac27e5	-0.021015117
38	0x3e1855c0	0.14876461
39	0xbdfb5b18	-0.12273234
40	0xbe7193c2	-0.23591521
41	0xbcfb2509	-0.030657308
42	0xbddae4d1	-0.106881745
43	0x3da1ae8a	0.07894619
44	0xbd13d696	-0.036093317
45	0x3de48b5d	0.11159394
46	0x3d457ef3	0.04821677
47	0xbdae7c60	-0.085198164
48	0xbe8a56fb	-0.27019486
49	0xbcbcb2a5	-0.023034403
50	0x3ca6d826	0.02036674
51	0xbd9527ac	-0.072829574
52	0xbddea466	-0.108712
53	0x3df4bdee	0.11950289
54	0xbd89c7c6	-0.06727557
55	0xbd235c6f	-0.039883073
56	0xbb94a9ef	-0.004536859
57	0x3dcf1aea	0.10112555
58	0xbe207dc8	-0.15672982
59	0xbd088547	-0.03333023
60	0x3d93bf3d	0.0721421
61	0x3e11a169	0.1422173
62	0x3e3ddcc2	0.18541244
63	0x3be18354	0.0068821106
64	0xbdd2e942	-0.10298397
65	0xbe2220e1	-0.15832855
66	0x3d0d1fe3	0.034454238
67	0x3d4608c9	0.048348222
68	0xbd3812b8	-0.044939727
69	0x3e079ca3	0.13243346
70	0x3e00cc26	0.12577876
71	0x3d3d75c5	0.046254892
72	0x3e36ded5	0.17858441
73	0x3d44cff5	0.048049886
74	0xb9a58f6a	-0.00031578104
75	0x3be97fef	0.0071258466
76	0x3db1018e	0.08642875
77	0xbc6a8ef3	-0.014316308
78	0xbdef039f	-0.116706125
79	0xbe066108	-0.13122952
80	0xbd86e3b1	-0.065863974
81	0x3d3d2a7d	0.046183098
82	0x3ca8f191	0.020623
83	0x3d63a4bc	0.055577025
84	0xbe46876b	-0.19387595
85	0xbe1c3fb6	-0.15258679
86	0xbd85461f	-0.06507515
87	0xbdd3aa4f	-0.10335218
88	0x3dfa1613	0.122112416
89	0x3dcbca76	0.09950726
90	0x3d79da3b	0.060999136
91	0x3d6b0b99	0.057384107
92	0xbc835a82	-0.016034368
93	0x3c6fb142	0.014629664
94	0xbe2e59f8	-0.17026508
95	0x3d74dfd8	0.059783787
96	0x3d62124c	0.05519323
97	0x3d3be65d	0.04587399
98	0xbd3f651d	-0.04672729
99	0x3d81ae95	0.06332127
100	0xbe4e1914	-0.20126754
101	0x3db2b8fc	0.08726689
102	0xbd664674	-0.056219533
103	0xbe054682	-0.13015178
104	0xbe0bb14f	-0.13641857
105	0xbcccd0eb	-0.025001964
106	0xbe3b5be0	-0.18296766
107	0xbd321169	-0.043473635
108	0x3dcbd694	0.09953037
109	0x3d032834	0.032020763
110	0xbd8e17f3	-0.06938162
111	0x3d1f8ecf	0.038954552
112	0xbc0694c2	-0.008214178
113	0xbd8d53a4	-0.06900719
114	0x3ddfe7a2	0.10932852
115	0xbd5245b4	-0.051336005
116	0x3e903144	0.28162587
117	0x3d2ed384	0.042682186
118	0x3d88a34a	0.0667177
119	0xbb5980f7	-0.0033188441
120	0x3e5e67cc	0.21719283
121	0xbdbdc838	-0.09266704
122	0xbd969e31	-0.07354391
123	0xbe1c5f93	-0.15270834
124	0xbcc2fd51	-0.023802431
125	0x3df7b469	0.120949574
126	0x3e082b7f	0.13297842
127	0xbbac11c9	-0.0052511436
128	0xbd9d22d6	-0.0767266
129	0xbdfe8aab	-0.124287926
130	0x3d958046	0.07299857
131	0x3c36b17d	0.011150715
132	0xbda04b72	-0.0782689
133	0x3e07c34d	0.13258095
134	0xbd119d1f	-0.035550233
135	0xbd89a03c	-0.067200154
136	0xbdfe5e19	-0.124202915
137	0xbdd66898	-0.104691684
138	0x3deb9e49	0.115048
139	0xbb5ac2bf	-0.0033380238
140	0xbd4e18f6	-0.050316773
141	0x3c1d9515	0.009618063
142	0x3d697fe5	0.057006735
143	0x3c859ed0	0.01631108
144	0x3e0878e5	0.13327368
145	0xbc2617b2	-0.010137485
146	0xbc8e3a10	-0.01736167
147	0xbdf15088	-0.11782938
148	0x3da7d010	0.08193982
149	0xbdc94baf	-0.098288886
150	0xbd9e60df	-0.077333204
151	0x3d995b4c	0.074881166
152	0xbdf8aad0	-0.12141955
153	0xbe0c9195	-0.1372741
154	0xbd92373e	-0.07139443
155	0xbd65a086	-0.05606129
156	0xbdacb93b	-0.084337674
157	0x3ce7a514	0.028276958
158	0xbdbc2a7c	-0.09187791
159	0xbd581529	-0.052754555
160	0x3ca2abb6	0.019857269
161	0x3e021635	0.12703784
162	0xbd7a5326	-0.061114453
163	0x3dd78234	0.10522881
164	0xbe0f3f4e	-0.13988993
165	0x3d69a56b	0.05704252
166	0x3e1799d4	0.14804775
167	0x3d1924ec	0.037388727
168	0xbd52eb79	-0.051494095
169	0xbe074237	-0.13208853
170	0x3e1c9cb3	0.15294151
171	0xbd44ea65	-0.0480751
172	0xbdcc58ae	-0.09977852
173	0x3d64dacd	0.055872727
174	0xbcb19428	-0.021677092
175	0x3ce209c7	0.027592553
176	0xbe02afe6	-0.12762412
177	0x3dadd49e	0.08487819
178	0xbe400063	-0.18750148
179	0xbe3427af	-0.17593263
180	0x3c0f9a5a	0.008764828
181	0xbddeca50	-0.10878432
182	0x3d336179	0.04379413
183	0xbc81e2ca	-0.015855212
184	0x3e0165f9	0.12636556
185	0x3db633af	0.088965766
186	0xbc5ad2fd	-0.013355968
187	0x3dae103d	0.08499191
188	0x3da9efac	0.08297667
189	0x3d75109e	0.0598303
190	0x3d88e665	0.06684569
191	0xbe44e66a	-0.19228521
192	0x3de3665e	0.11103509
193	0x3c9356cc	0.017985724
194	0x3d8b347f	0.06797122
195	0x3d75dcf4	0.06002517
196	0x3d88af20	0.066740274
197	0x3cf18fd3	0.029487526
198	0x3e01e112	0.12683514
199	0x3d1471da	0.03624139
200	0x3d0c2391	0.034213606
201	0x3da2afa4	0.07943657
202	0x3c5a30fa	0.013317341
203	0xbd5bce4e	-0.053663544
204	0xbde38640	-0.111095905
205	0x3d957da0	0.07299352
206	0xbde0793f	-0.10960626
207	0xbdbfd851	-0.09367431
208	0xbc56a072	-0.013099777
209	0x3d457966	0.048211478
210	0x3dc183ab	0.09448942
211	0xbc1f9b1f	-0.009741574
212	0xbd9fe709	-0.07807738
213	0x3e140b32	0.14457396
214	0xbe27771c	-0.1635403
215	0xbd7da276	-0.061922513
216	0x3db5b806	0.0887299
217	0x3d5d8007	0.054077175
218	0x3da53aee	0.080678806
219	0x3d971117	0.073763065
220	0xbd73d524	-0.05952944
221	0xbde82ae1	-0.113363035
222	0x3bd1b113	0.0063992827
223	0x3d9fe7de	0.07807897
224	0x3cebdf24	0.028792925
225	0x3e052911	0.13003947
226	0xbccb5752	-0.024821911
227	0x3d83ccca	0.06435545
228	0x3d8b8aab	0.06813558
229	0xbd9429bd	-0.072345234
230	0xbe4ce4b5	-0.2000912
231	0x3d6af141	0.057358984
232	0x3e13a797	0.14419399
233	0x3e2089e8	0.15677607
234	0xbd93644e	-0.07196866
235	0x3ccf437a	0.02530073
236	0x3d51eb5d	0.05124985
237	0x3da48ec3	0.08035042
238	0x3d7c4c40	0.061596155
239	0x3e467bc7	0.19383155
240	0x3e169f0e	0.14709112
241	0xbe4311ac	-0.1904971
242	0xbe1671ed	-0.14691897
243	0x3e582e93	0.21111517
244	0x3e177ff7	0.14794908
245	0xbd513503	-0.051075947
246	0xbddb2756	-0.10700862
247	0x3d0468f3	0.03232665
248	0x3e46567e	0.19368932
249	0xbe4e0ad8	-0.20121324
250	0x3d7f6829	0.062355194
251	0xbde2134a	-0.11038835
252	0xbd9682bc	-0.07349154
253	0xbdc63789	-0.09678561
254	0xbd9addef	-0.07561862
255	0x3df59c91	0.11992753

l2.bias f4 [64]
0	0x3e544ee8	0.20733225
1	0xbe0ecc88	-0.1394521
2	0x3e4a4f86	0.19756898
3	0xbe8d3405	-0.2757875
4	0xbd84167a	-0.064495996
5	0xbe44e7be	-0.19229028
6	0x3e39b988	0.18137181
7	0xbdbb8012	-0.09155287
8	0x3ea0269b	0.31279454
9	0x3e2a0532	0.16603544
10	0xbda15a23	-0.0787852
11	0x3e8171a5	0.25282016
12	0x3dd553c5	0.104163684
13	0x3e72e12d	0.2371871
14	0xbe30abae	-0.1725299
15	0x3c9d62b5	0.019212106
16	0xbba8d6d8	-0.0051525645
17	0x3dd6ebad	0.1049417
18	0xbe0d92bf	-0.1382551
19	0x3da802cf	0.08203661
20	0xbd23bf64	-0.039977446
21	0xbe1e8e64	-0.15484005
22	0x3c749944	0.0149291195
23	0x3d6b5f59	0.057463977
24	0x3b02a4a1	0.0019934552
25	0xbe73861f	-0.23781632
26	0x3e381d6e	0.17979977
27	0xbd12894c	-0.035775468
28	0x3e284326	0.16431865
29	0x3e29c153	0.16577654
30	0x3d74be41	0.059751753
31	0x3db80127	0.08984595
32	0xbd87f2a6	-0.066380784
33	0x3e11e147	0.14246093
34	0x3e63ee76	0.22258934
35	0xbe2e9b35	-0.17051394
36	0x3e2769c9	0.16348948
37	0x3e38c01e	0.18042037
38	0xbe33388c	-0.1750204
39	0xbd533a88	-0.05156949
40	0xbc8d646c	-0.017259799
41	0x3d62d962	0.055383094
42	0xbe0f821d	-0.14014478
43	0xbdd176b8	-0.10227722
44	0x3cd6e2e6	0.02623124
45	0x3c89100c	0.016731285
46	0xbdcc5926	-0.09977941
47	0x3eac55d1	0.33659223
48	0xbdee21d8	-0.11627549
49	0xbdf5e73f	-0.12006997
50	0xbda82cf2	-0.08211698
51	0x3e13afcb	0.14422528
52	0x3d2ba0a8	0.04190126
53	0xbdabd1b5	-0.08389608
54	0x3e1e5de2	0.15465501
55	0xbe1435ce	-0.1447365
56	0xba8c3e2c	-0.0010699681
57	0x3e35d199	0.17755736
58	0xbe4413e4	-0.19148213
59	0xbe09c3bf	-0.13453577
60	0x3e5d09b3	0.21585731
61	0xbdb04e22	-0.08608653
62	0x3e57c233	0.21070175
63	0x3d5ed772	0.054404683
